Files already downloaded and verified
tensor([0.5071, 0.4865, 0.4409])
tensor([0.2653, 0.2546, 0.2740])
Files already downloaded and verified
Files already downloaded and verified
----------------------------------------------------------------------------------------------------------------
                            Parent Layers       Layer (type)        Output Shape         Param #     Tr. Param #
================================================================================================================
    ViTClassifierModel/CreatePatchesLayer           Unfold-1      [32, 108, 144]               0               0
   ViTClassifierModel/PatchEmbeddingLayer           Linear-2       [32, 144, 64]           6,976           6,976
   ViTClassifierModel/PatchEmbeddingLayer        Embedding-3        [1, 145, 64]           9,280           9,280
      ViTClassifierModel/TransformerBlock        LayerNorm-4       [32, 145, 64]             128             128
      ViTClassifierModel/TransformerBlock          Dropout-5       [32, 145, 64]               0               0
      ViTClassifierModel/TransformerBlock        LayerNorm-6       [32, 145, 64]             128             128
      ViTClassifierModel/TransformerBlock           Linear-7      [32, 145, 128]           8,320           8,320
      ViTClassifierModel/TransformerBlock             GELU-8      [32, 145, 128]               0               0
      ViTClassifierModel/TransformerBlock          Dropout-9      [32, 145, 128]               0               0
      ViTClassifierModel/TransformerBlock          Linear-10       [32, 145, 64]           8,256           8,256
      ViTClassifierModel/TransformerBlock            GELU-11       [32, 145, 64]               0               0
      ViTClassifierModel/TransformerBlock         Dropout-12       [32, 145, 64]               0               0
      ViTClassifierModel/TransformerBlock       LayerNorm-13       [32, 145, 64]             128             128
      ViTClassifierModel/TransformerBlock       LayerNorm-14       [32, 145, 64]             128             128
      ViTClassifierModel/TransformerBlock         Dropout-15       [32, 145, 64]               0               0
      ViTClassifierModel/TransformerBlock       LayerNorm-16       [32, 145, 64]             128             128
      ViTClassifierModel/TransformerBlock          Linear-17      [32, 145, 128]           8,320           8,320
      ViTClassifierModel/TransformerBlock            GELU-18      [32, 145, 128]               0               0
      ViTClassifierModel/TransformerBlock         Dropout-19      [32, 145, 128]               0               0
      ViTClassifierModel/TransformerBlock          Linear-20       [32, 145, 64]           8,256           8,256
      ViTClassifierModel/TransformerBlock            GELU-21       [32, 145, 64]               0               0
      ViTClassifierModel/TransformerBlock         Dropout-22       [32, 145, 64]               0               0
      ViTClassifierModel/TransformerBlock       LayerNorm-23       [32, 145, 64]             128             128
      ViTClassifierModel/TransformerBlock       LayerNorm-24       [32, 145, 64]             128             128
      ViTClassifierModel/TransformerBlock         Dropout-25       [32, 145, 64]               0               0
      ViTClassifierModel/TransformerBlock       LayerNorm-26       [32, 145, 64]             128             128
      ViTClassifierModel/TransformerBlock          Linear-27      [32, 145, 128]           8,320           8,320
      ViTClassifierModel/TransformerBlock            GELU-28      [32, 145, 128]               0               0
      ViTClassifierModel/TransformerBlock         Dropout-29      [32, 145, 128]               0               0
      ViTClassifierModel/TransformerBlock          Linear-30       [32, 145, 64]           8,256           8,256
      ViTClassifierModel/TransformerBlock            GELU-31       [32, 145, 64]               0               0
      ViTClassifierModel/TransformerBlock         Dropout-32       [32, 145, 64]               0               0
      ViTClassifierModel/TransformerBlock       LayerNorm-33       [32, 145, 64]             128             128
      ViTClassifierModel/TransformerBlock       LayerNorm-34       [32, 145, 64]             128             128
      ViTClassifierModel/TransformerBlock         Dropout-35       [32, 145, 64]               0               0
      ViTClassifierModel/TransformerBlock       LayerNorm-36       [32, 145, 64]             128             128
      ViTClassifierModel/TransformerBlock          Linear-37      [32, 145, 128]           8,320           8,320
      ViTClassifierModel/TransformerBlock            GELU-38      [32, 145, 128]               0               0
      ViTClassifierModel/TransformerBlock         Dropout-39      [32, 145, 128]               0               0
      ViTClassifierModel/TransformerBlock          Linear-40       [32, 145, 64]           8,256           8,256
      ViTClassifierModel/TransformerBlock            GELU-41       [32, 145, 64]               0               0
      ViTClassifierModel/TransformerBlock         Dropout-42       [32, 145, 64]               0               0
      ViTClassifierModel/TransformerBlock       LayerNorm-43       [32, 145, 64]             128             128
      ViTClassifierModel/TransformerBlock       LayerNorm-44       [32, 145, 64]             128             128
      ViTClassifierModel/TransformerBlock         Dropout-45       [32, 145, 64]               0               0
      ViTClassifierModel/TransformerBlock       LayerNorm-46       [32, 145, 64]             128             128
      ViTClassifierModel/TransformerBlock          Linear-47      [32, 145, 128]           8,320           8,320
      ViTClassifierModel/TransformerBlock            GELU-48      [32, 145, 128]               0               0
      ViTClassifierModel/TransformerBlock         Dropout-49      [32, 145, 128]               0               0
      ViTClassifierModel/TransformerBlock          Linear-50       [32, 145, 64]           8,256           8,256
      ViTClassifierModel/TransformerBlock            GELU-51       [32, 145, 64]               0               0
      ViTClassifierModel/TransformerBlock         Dropout-52       [32, 145, 64]               0               0
      ViTClassifierModel/TransformerBlock       LayerNorm-53       [32, 145, 64]             128             128
      ViTClassifierModel/TransformerBlock       LayerNorm-54       [32, 145, 64]             128             128
      ViTClassifierModel/TransformerBlock         Dropout-55       [32, 145, 64]               0               0
      ViTClassifierModel/TransformerBlock       LayerNorm-56       [32, 145, 64]             128             128
      ViTClassifierModel/TransformerBlock          Linear-57      [32, 145, 128]           8,320           8,320
      ViTClassifierModel/TransformerBlock            GELU-58      [32, 145, 128]               0               0
      ViTClassifierModel/TransformerBlock         Dropout-59      [32, 145, 128]               0               0
      ViTClassifierModel/TransformerBlock          Linear-60       [32, 145, 64]           8,256           8,256
      ViTClassifierModel/TransformerBlock            GELU-61       [32, 145, 64]               0               0
      ViTClassifierModel/TransformerBlock         Dropout-62       [32, 145, 64]               0               0
      ViTClassifierModel/TransformerBlock       LayerNorm-63       [32, 145, 64]             128             128
      ViTClassifierModel/TransformerBlock       LayerNorm-64       [32, 145, 64]             128             128
      ViTClassifierModel/TransformerBlock         Dropout-65       [32, 145, 64]               0               0
      ViTClassifierModel/TransformerBlock       LayerNorm-66       [32, 145, 64]             128             128
      ViTClassifierModel/TransformerBlock          Linear-67      [32, 145, 128]           8,320           8,320
      ViTClassifierModel/TransformerBlock            GELU-68      [32, 145, 128]               0               0
      ViTClassifierModel/TransformerBlock         Dropout-69      [32, 145, 128]               0               0
      ViTClassifierModel/TransformerBlock          Linear-70       [32, 145, 64]           8,256           8,256
      ViTClassifierModel/TransformerBlock            GELU-71       [32, 145, 64]               0               0
      ViTClassifierModel/TransformerBlock         Dropout-72       [32, 145, 64]               0               0
      ViTClassifierModel/TransformerBlock       LayerNorm-73       [32, 145, 64]             128             128
      ViTClassifierModel/TransformerBlock       LayerNorm-74       [32, 145, 64]             128             128
      ViTClassifierModel/TransformerBlock         Dropout-75       [32, 145, 64]               0               0
      ViTClassifierModel/TransformerBlock       LayerNorm-76       [32, 145, 64]             128             128
      ViTClassifierModel/TransformerBlock          Linear-77      [32, 145, 128]           8,320           8,320
      ViTClassifierModel/TransformerBlock            GELU-78      [32, 145, 128]               0               0
      ViTClassifierModel/TransformerBlock         Dropout-79      [32, 145, 128]               0               0
      ViTClassifierModel/TransformerBlock          Linear-80       [32, 145, 64]           8,256           8,256
      ViTClassifierModel/TransformerBlock            GELU-81       [32, 145, 64]               0               0
      ViTClassifierModel/TransformerBlock         Dropout-82       [32, 145, 64]               0               0
      ViTClassifierModel/TransformerBlock       LayerNorm-83       [32, 145, 64]             128             128
                       ViTClassifierModel          Linear-84          [32, 2048]         133,120         133,120
                       ViTClassifierModel            GELU-85          [32, 2048]               0               0
                       ViTClassifierModel         Dropout-86          [32, 2048]               0               0
                       ViTClassifierModel          Linear-87          [32, 1024]       2,098,176       2,098,176
                       ViTClassifierModel            GELU-88          [32, 1024]               0               0
                       ViTClassifierModel         Dropout-89          [32, 1024]               0               0
                       ViTClassifierModel          Linear-90           [32, 100]         102,500         102,500
================================================================================================================
Total params: 2,485,732
Trainable params: 2,485,732
Non-trainable params: 0
----------------------------------------------------------------------------------------------------------------
Training Started
Epoch: 1, Training Loss: 4.0868, Validation Loss: 3.7237, Training Accuracy: 0.0666, Validation Accuracy: 0.1211, Training Accuracy Top-5: 0.2008, Validation Accuracy Top-5: 0.3030
…
